docs/models traning data/model.onnx (onnx, 991023 bytes, 18 tensors)

block1.0.depthwise.weight f4 [32, 1, 3, 3]
000000 39 60 8b bd 47 bb 9d 3c 2d 46 7f 3c e2 b1 32 be
       -0.068054624 0.01925434 0.015580696 -0.1745067
000010 2a 87 6e bd f9 6b ae 3d dc 15 1b 3c 4e 93 56 3d
       -0.05823437 0.08516688 0.009465661 0.052386574
000020 94 d1 55 bd ed c0 80 3d 37 98 94 bd f0 ef d6 bd
       -0.052201822 0.06286798 -0.07255595 -0.10494983
000030 01 17 f7 bd 0a ea 3e 3d 4b d2 f6 3c 14 97 fb bd
       -0.120649345 0.046609916 0.030129572 -0.12284675
000040 1a 8c 15 bc 03 a8 9c bc 89 c5 a9 bd 0e e9 32 bd
       -0.009127641 -0.019123083 -0.0828963 -0.04367929
000050 33 ec 77 bc 6d 63 c8 bd 9d 24 c6 3d 36 f2 90 3d
       -0.015131998 -0.09784589 0.09674952 0.07077448
000060 42 5e 52 3b 0e f9 36 bc 4d be 8c 3c 06 26 3e be
       0.003209964 -0.011167778 0.017180586 -0.18569192
000070 4a b4 51 bd c2 1c c4 bd 69 8b b6 bd 82 4d b3 bb
       -0.051197328 -0.095757976 -0.08913309 -0.005471886
000080 ae 91 81 3d 81 da 96 bd 53 1c e9 bd dc 98 37 bd
       0.06326614 -0.07365895 -0.113823555 -0.044823512
000090 97 34 9a 3d a3 45 73 bd 79 14 e2 3d b0 98 93 bd
       0.07529562 -0.059392583 0.11039061 -0.07206857
0000a0 7a 4b 73 3d cf 73 1a 3d 00 91 d9 bc 31 3a b7 bc
       0.059398152 0.0377081 -0.0265584 -0.022366615
0000b0 a5 e4 14 3c d2 9d b7 3d 4b 74 04 3d 19 c8 af bd
       0.009087716 0.08965649 0.032337468 -0.085830875
0000c0 47 38 cc 3c fa ee 62 3d 88 87 84 3d b6 bc 9c bd
       0.024929179 0.055403687 0.06471163 -0.07653181
0000d0 c7 4a 27 3e 7f 9a 66 bd 42 70 1b bc 18 50 0a bc
       0.16337119 -0.056299683 -0.009487214 -0.008441947
0000e0 c6 28 8b 3c 3a 0a 81 bc 7f d3 2d be df 6f 15 3d
       0.016987216 -0.015751947 -0.1697521 0.03648364
0000f0 4d d2 61 bc 0c 3f d9 3d 6f 78 05 bc 30 2b 67 3d
       -0.01378305 0.10607728 -0.008146389 0.05643767
000100 55 03 b6 3d ba 60 cb 3d 50 58 96 3d b4 44 09 be
       0.08887354 0.099305585 0.07341063 -0.13405114
000110 18 2b 0f bc 07 04 f0 bd 06 a2 1c 3d 77 c0 e7 3d
       -0.008738302 -0.11719518 0.038240455 0.11316007
000120 d8 2a 0c bd 97 25 0a be b8 c4 11 3c ec 7a b8 3b
       -0.034220546 -0.13490902 0.008896999 0.005629888
000130 8a 65 56 bd 84 de c4 ba 57 4f 2a 39 da e5 37 3e
       -0.05234293 -0.0015019928 0.0001624202 0.17958775
000140 d9 95 77 bd 16 28 58 bd 98 fc f2 bd 31 b7 56 bd
       -0.06044564 -0.052772604 -0.11864585 -0.0524208
000150 b5 ed c3 bd 43 2f 98 3d 59 bc 10 be 43 71 05 be
       -0.095668234 0.074308895 -0.14134349 -0.13031487
000160 89 28 d1 3a 5b 6b c7 3c d2 48 4c 3d ce ca c7 3d
       0.0015957515 0.024343183 0.049874134 0.09755479
000170 8f fa a4 bd 48 a8 67 3d 7f b7 3f 3d 6b 94 31 bc
       -0.08055603 0.05655697 0.046805855 -0.010838608
000180 04 5b 72 bb 7e 23 ea bd df 16 c0 3c b3 b0 b3 3c
       -0.003698052 -0.11432551 0.023448406 0.021934843
000190 68 b5 a0 bd f2 42 e3 3b c7 0a de 3d ab 54 80 bd
       -0.078471005 0.0069354707 0.10841899 -0.06266149
0001a0 bc 29 54 3d 1e 6d a4 3d 93 4f ae 3d 51 31 91 bd
       0.051797614 0.08028625 0.08511271 -0.070894845
0001b0 33 ba eb bc d7 e9 1a be 2f ab 11 be ab c1 fd 3d
       -0.02877531 -0.15128265 -0.14225458 0.12390455
0001c0 5a e0 2f 3e 1a 8f 1b 3d 3e dd 11 bd be 4b 2a be
       0.17175427 0.03797827 -0.035611384 -0.16630456
0001d0 a3 46 dd bd a8 fa d4 3d 87 bf dd 3d 9c 8b be 3d
       -0.108044885 0.103993714 0.108275466 0.09303972
0001e0 39 ab a2 bd 99 cd 02 3e d7 59 17 bd e7 b2 6d 3e
       -0.079428144 0.12773742 -0.036950912 0.23212777
0001f0 82 5c 4e bd 53 33 e7 38 9b 33 05 3e 5d 89 38 3d
       -0.05038119 0.00011024498 0.13007967 0.045052875
000200 8b f0 18 bc a4 a3 98 3d 9c 24 b9 3b 3b 73 55 bd
       -0.009334694 0.07453087 0.005650116 -0.052111845
000210 94 51 c7 3c e5 31 b4 3c 13 61 10 bb a0 eb d6 bd
       0.024330892 0.021996448 -0.0022030517 -0.10494161
000220 d2 4e 90 3d 90 b0 8b bd ae 78 da 3c 84 07 29 be
       0.07046284 -0.06820786 0.026668873 -0.16506773
000230 ce b7 0c 3d 22 e9 55 bd d5 06 68 3d 59 9e e9 3d
       0.034354977 -0.052224286 0.05664714 0.114071555
000240 a0 f7 06 be 5d fc 7e 3d fa 1b 42 3d 9c a7 09 bd
       -0.13180399 0.06225239 0.04738996 -0.03360711
000250 de c6 90 bd df 4e 17 3d 70 df 58 bd cd 41 79 3d
       -0.07069181 0.03694045 -0.05294746 0.06085377
000260 ef b8 bd 3d c6 56 71 3d eb 0d 86 ba 0e f4 22 3d
       0.09263789 0.058920644 -0.0010227537 0.03978353
000270 ed 1a fb bd f6 4c 60 bd e4 c5 82 3c a7 22 80 3d
       -0.12260995 -0.054760896 0.015963502 0.062566094
000280 fd 1f b2 bd 70 53 cf 3d 2e ef 55 bc 0c 4d c2 3b
       -0.086975075 0.10123336 -0.013057513 0.005929595
000290 63 01 14 be 2c 20 26 3d c8 c6 e3 bc 9d 5a 3d bd
       -0.14453654 0.040558025 -0.027804747 -0.046228994
0002a0 43 2f c5 3d 5c 79 76 bd 83 35 e2 bd f4 4d c7 3c
       0.09628155 -0.06017433 -0.11045363 0.024329163
0002b0 d4 46 99 3c 7e 6f e7 bc 6d 2d 97 3d c6 0a 44 be
       0.018710531 -0.028251406 0.07381711 -0.19144735
0002c0 2b 7b 59 3e 3b 27 a1 3d 31 7f a5 bd 81 06 f6 bd
       0.21238391 0.07868811 -0.080809005 -0.12012959
0002d0 76 ea 2a 3d 04 18 0b 3e 65 09 56 3d 18 ae 7f 3d
       0.041727506 0.1358338 0.052255053 0.062421888
0002e0 0b f7 7a 3d 5e 5d db 3d 05 fc 4c 3d 62 46 37 bd
       0.061270755 0.10711168 0.050045032 -0.044744857
0002f0 c5 1d 0d bd 09 a9 cf bc 29 d7 aa bd 29 db 2d bd
       -0.03445222 -0.025349157 -0.0834182 -0.042445336
000300 ca 76 b2 3d a3 90 0d 3d 5e 3c 6a 3d 41 f8 47 bc
       0.087140635 0.034561764 0.057186477 -0.012205184
000310 f9 47 de bd 89 c6 43 be 62 4d f0 bd a3 c1 b7 3c
       -0.108535714 -0.19118704 -0.117335096 0.0224312
000320 5b 5e 27 3d ca eb 5f 3e 16 e7 94 bb 14 e7 0b 3c
       0.04086147 0.2186729 -0.004544149 0.00853898
000330 2d 47 d9 bd d5 9d 54 3d 3c fb 2f bd 64 d9 a8 b9
       -0.10609279 0.051908333 -0.042964205 -0.00032205426
000340 e9 6b d0 bd cb 7d 18 3d d9 3c 0e be 98 9a b0 bc
       -0.10176832 0.03722934 -0.13890399 -0.021558091
000350 5a 9e 00 3d 63 56 c1 bc 62 ce 4a bd cf 5a af bd
       0.031401016 -0.023600763 -0.04951323 -0.08562242
000360 16 d4 18 3e 3f f1 69 bd 49 bf 58 bd ed 9e 9d bd
       0.14924654 -0.057114836 -0.0529168 -0.07696328
000370 8d db f1 bc 04 8d 2e be 23 d7 ef bb 51 9f a7 bd
       -0.029523635 -0.1704598 -0.0073193475 -0.08184684
000380 62 92 b5 3c 3e c5 fa bd ec 8d b5 3c 88 17 2e 3e
       0.022164527 -0.12244652 0.0221624 0.17001164
000390 a6 7f 8a 3d a0 46 31 bd 5b 21 fb 3d 03 d6 eb bd
       0.06762628 -0.043280244 0.122622214 -0.11515429
0003a0 1b 26 03 3e 83 b0 b8 bc 11 fc 76 3d d6 aa 13 3c
       0.12807505 -0.022545105 0.060298983 0.009012898
0003b0 1d b4 04 bd 5c 93 09 3d ea 48 1c be bf 8b b9 3d
       -0.032398332 0.0335878 -0.1526219 0.090598576
0003c0 53 ac 5b bc 37 34 8f 3d 69 4d 6a bd 77 a6 bc bd
       -0.0134077845 0.06992381 -0.05720273 -0.09211438
0003d0 db 86 b6 bd 39 f1 78 3d 70 7c 8d bd f2 ab db bc
       -0.089124404 0.060776923 -0.069085 -0.026815388
0003e0 af 55 19 bd 1e a0 be bd 9a fa d6 3c 0e 7f cb bd
       -0.03743523 -0.09307884 0.026242543 -0.09936343
0003f0 6b 76 c3 ba 27 c6 bd bd 22 34 5e bc 7d b9 b1 3d
       -0.0014912611 -0.0926631 -0.013562234 0.08677957

block2.0.depthwise.weight f4 [64, 1, 3, 3]
000000 a4 fd 39 bd f5 d9 48 bd 01 08 70 bd 20 dc 79 bd
       -0.045407906 -0.049035985 -0.058601383 -0.061000943
000010 7d c8 27 3c 39 0c cc bc be 6c b7 bd 09 0f f9 3c
       0.010240671 -0.024908172 -0.08956288 0.030402677
000020 4a c4 86 bd 7a 54 b5 3d 5a 6e a9 3d 8a af ea bb
       -0.06580408 0.08854003 0.08273001 -0.007162039
000030 bd 20 b8 bb cc 44 c1 3c f6 71 90 bd 36 f4 de bc
       -0.005619137 0.023592375 -0.07052986 -0.027216058
000040 f1 44 28 bd 0b ae 64 bc c2 46 c5 3d 3f ef be 3d
       -0.041081373 -0.013957511 0.096326366 0.09322976
000050 2c 84 39 39 2a 79 aa 3d a0 d9 c5 3d 1f 70 84 3d
       0.00017692213 0.083238915 0.09660649 0.06466698
000060 dd a3 86 3c 02 53 61 bb 45 5b 93 3b 20 cc 8d bb
       0.016435558 -0.0034381752 0.004496964 -0.004327312
000070 62 e9 af bc f1 49 a8 3c e5 5a cf 3c 06 f3 29 3d
       -0.02147359 0.02054307 0.025311897 0.04149153
000080 3e d0 31 3d 52 89 8f 3c 3e 4b cb bd 6c 0a 9c bd
       0.043411486 0.017521534 -0.09926461 -0.07619175
000090 55 ee 13 be 60 75 b3 bd 06 a3 1b bd d4 a0 1d bd
       -0.14446385 -0.08762622 -0.03799727 -0.038483456
0000a0 50 d9 bd 3c 6c c4 46 3c 6a 3f 88 3c ec 26 ac bc
       0.023174912 0.012131792 0.0166318 -0.021014653
0000b0 41 cd 3e bd 90 c3 a7 3c 18 00 4e 3c ed cf 89 bd
       -0.046582464 0.020478994 0.012573265 -0.06729112
0000c0 59 26 cd 3d 7c 38 6e bd bb 8c a1 bd 6d ae 72 3a
       0.1001708 -0.058159336 -0.0788817 0.0009257559
0000d0 99 f3 c3 bd f0 a6 55 bd c3 41 89 bc 77 69 ff 3c
       -0.09567947 -0.052161157 -0.01675499 0.03117822
0000e0 2d e6 6b bc 0b a9 2e 3c f3 5c 9c 3c 36 4b 4d 3d
       -0.01439814 0.01066042 0.01908729 0.050120555
0000f0 ab 85 7a 3b da 83 bb 3d fd 2a ad 3d f9 39 71 bd
       0.0038226645 0.09156008 0.08455465 -0.058893178
000100 38 86 9d 3c f9 87 0d bd 6e f6 03 3d 68 ee e2 3d
       0.01922904 -0.0345535 0.032217436 0.11080629
000110 5a 2b 8b bd a4 23 69 bd b7 8f 9b 3c 92 d2 e6 3c
       -0.06795378 -0.056918755 0.018989427 0.02817658
000120 17 f5 d3 3c 85 39 67 3d 4d 5e 76 3d 32 69 aa bc
       0.025873704 0.05645134 0.060148526 -0.020802114
000130 5d 73 84 3d 34 66 e5 38 6b 75 cc 3d cf 87 68 bc
       0.06467316 0.00010938608 0.09983333 -0.014192536
000140 40 53 c2 3b b4 1c 16 bd c1 a1 f5 bb 1f 13 93 3c
       0.0059303343 -0.036648467 -0.007496089 0.017953454
000150 8a 23 6c 3c 78 4b 06 bd ec a3 9c 3d 25 da d6 bc
       0.01441277 -0.032786816 0.07648453 -0.026227066
000160 62 73 26 bd 20 b6 8e 3d 4f 06 8e bc 21 a3 4f ba
       -0.04063738 0.06968331 -0.017336993 -0.00079207314
000170 0a 68 89 3c 6f b4 27 be 0e 9a e7 bd 34 eb 8b bc
       0.016773243 -0.16377424 -0.113086805 -0.017079927
000180 83 e1 5e bd 33 ac e5 bd 9c 32 03 be e0 22 e9 bd
       -0.054414283 -0.11214485 -0.12812275 -0.11383605
000190 eb dc 53 bd 35 4e f6 bd f4 42 38 bd b5 e4 4e 3c
       -0.051724356 -0.120266356 -0.044985726 0.01262777
0001a0 78 0b fe bd c5 56 35 3d 7a 3c 24 bd 6b fa 7c bc
       -0.12404531 0.044272203 -0.040096737 -0.015440564
0001b0 8c 59 48 bd 70 65 c1 bc 26 67 f0 3b bc a9 8b bd
       -0.048913524 -0.02360794 0.007336515 -0.06819484
0001c0 17 87 ab bc 9f 01 a2 3d bf 4c c0 bc a1 b8 3c bc
       -0.02093844 0.079104654 -0.023474095 -0.011518628
0001d0 67 30 b0 3d fc b8 19 bc b4 0b d0 3d 64 8d 57 bd
       0.08602982 -0.009382483 0.10158482 -0.052625075
0001e0 77 fa 1a bd d8 e5 48 ba 92 be 56 bd bb fa 47 3e
       -0.03783652 -0.0007663644 -0.052427836 0.1952924
0001f0 eb 4c 7f 3d 4b a3 dd bb 5e 64 17 3d 77 e3 76 bb
       0.062329214 -0.006763851 0.036960952 -0.00376722
000200 34 fb 6e 3b ce 21 25 be 32 7c 63 3d cb f8 64 bd
       0.0036465647 -0.16126177 0.055538364 -0.05590133
000210 db 05 26 bc c6 bf 02 3e fb 3c 66 bd 81 2f 80 bd
       -0.010133232 0.12768468 -0.0562105 -0.06259061
000220 92 ee 21 3b 81 d2 cb bc 6d e5 90 bc 05 7f c5 3c
       0.002470885 -0.02488065 -0.017687524 0.02410842
000230 9e d7 83 bd ac d8 fa bd c0 52 40 bd 97 ef 08 bd
       -0.0643761 -0.12248358 -0.046953917 -0.033431616
000240 37 80 29 bd 59 b0 ad bc 6a 63 9d 3d 79 0c d7 bc
       -0.04138204 -0.021202253 0.07684977 -0.026251065
000250 5e 7e 56 3c 57 a8 98 3d 10 31 35 3d 28 2a a8 bc
       0.013091652 0.07453983 0.044236243 -0.020527914
000260 f9 44 be 3c c1 6d 3c bd f5 5f 5e 3d 01 7d 8b 3d
       0.023226248 -0.046003107 0.05429073 0.06810952
000270 6b 14 fc bd 85 e6 1a 3d ee f5 14 bd 2f c0 00 3d
       -0.12308582 0.037817497 -0.03636735 0.03143328
000280 e0 eb a4 bb a6 ca 03 3e 72 d7 89 bc 98 fa ee 3b
       -0.0050330013 0.12870273 -0.016826365 0.0072930567
000290 39 62 29 3d 83 31 27 bd 87 1c 2c bc 22 74 96 3c
       0.041353438 -0.040818702 -0.010504848 0.018365923
0002a0 f7 72 21 bd cc 0c b8 3d f6 f7 6c 3d 34 f2 20 3d
       -0.03941628 0.08986816 0.05785366 0.039293483
0002b0 df b7 bb 3d 51 41 80 bc 45 fc 69 3d 19 9f d9 3c
       0.0916593 -0.015656145 0.05712535 0.026565121
0002c0 dd 93 04 3d a1 13 d4 3d 76 5b fe 3b c2 8b f5 3c
       0.032367576 0.103553064 0.007762368 0.029973868
0002d0 88 9a b3 3d d6 43 5a bb 9e d4 17 3d 00 44 29 3d
       0.08769709 -0.0033304594 0.037068002 0.041324615
0002e0 15 f7 52 bd b2 1c 4f 3d fc 00 61 3c 41 01 6d bd
       -0.051505167 0.050564475 0.013733145 -0.057862524
0002f0 c8 3f a6 3c 93 ad fd 3c 1f 53 af 3d a3 be 5a 3d
       0.020294085 0.030966556 0.08560776 0.05340446
000300 f3 61 96 3c 32 76 f6 3d 84 b7 67 3c 26 47 cf 3c
       0.018357253 0.12034263 0.014142875 0.02530248
000310 60 0b 24 3b 1c 20 a5 3c c7 2d 26 3b 80 2e 27 bd
       0.0025031194 0.020156913 0.0025356875 -0.04081583
000320 de 38 c3 3c 16 15 02 3d fc b1 0e be c3 75 03 3e
       0.023830827 0.03175839 -0.13935083 0.12837891
000330 4c 82 86 3d 1d 61 97 bd c9 9a 80 3d 4c 96 ac bd
       0.06567821 -0.0739157 0.06279523 -0.08427104
000340 da a7 a1 3c d8 f7 34 be 69 3a 00 be 38 b9 61 bd
       0.019733358 -0.1767267 -0.12522282 -0.05510828
000350 7f a5 ab bd cd fb 78 bd 4d 97 bb bd ed 08 14 3c
       -0.08381175 -0.06078701 -0.09159718 0.009035331
000360 03 41 b7 bd 1a fd 0c 3c 38 61 89 3d 6c b3 55 3d
       -0.08947947 0.008605266 0.06707996 0.052173063
000370 a0 9d 0b 3c 74 5a 00 3d bf 7f 99 3c 61 9a 25 3d
       0.008521467 0.031336263 0.018737672 0.04043043
000380 3b c9 bb 3d ef 7e 11 bd 86 2e d6 bc f3 b1 b5 3d
       0.09169241 -0.035521444 -0.026145231 0.08871832
000390 7a 6a b8 3c 19 62 a3 3d 11 e8 40 bd 94 5d 5e 3d
       0.02251171 0.07977695 -0.047096316 0.05428846
0003a0 a3 35 34 bd 4c 4b 2b bc ac bd 53 bc d1 8e ed 3c
       -0.043996464 -0.010454964 -0.012923639 0.028998764
0003b0 e8 c6 dd 3c 84 39 89 3d 56 3b 8d 3d 20 5a de bd
       0.027072385 0.06700423 0.06896083 -0.10857034
0003c0 aa c9 2d bd 92 53 37 be ee c5 96 bb 31 61 30 bd
       -0.04242865 -0.17902973 -0.004601232 -0.04306144
0003d0 ac 56 e8 bc ac 93 bf 3d 3b cb 29 3e 49 81 04 3e
       -0.02836164 0.09354338 0.16581433 0.12939943
0003e0 be f1 80 3d fe 8e 46 bc 99 6a 5a bb ee d8 e9 39
       0.06296109 -0.012119053 -0.0033327697 0.00044602848
0003f0 07 39 3e bb 3a 9c 34 bd 7c e5 ad 3b b9 41 66 3d
       -0.002902569 -0.0440943 0.0053068977 0.05621502

block3.0.depthwise.weight f4 [128, 1, 3, 3]
000000 07 c5 a6 bc 06 dc 0f bc 73 ff ce bc 00 a7 a7 bc
       -0.020357622 -0.008780485 -0.025268292 -0.020465374
000010 81 d3 4a bd 43 fa 65 bd 35 01 91 bc b6 60 26 bc
       -0.049518112 -0.05614687 -0.01770077 -0.010154894
000020 c4 71 9c bd 9f 8e bf bc 11 e3 4a bd 26 8b 1f bd
       -0.076388866 -0.023383437 -0.049532954 -0.03895106
000030 43 c4 0a bd 66 13 e0 3b 27 dd 3d 3d 19 d9 ee bc
       -0.033878576 0.00683825 0.046353485 -0.029156255
000040 b9 fa 9d 3c ed 8e d1 bc fe fb e4 3c 14 7c a0 3c
       0.019284593 -0.025580848 0.02795219 0.019590415
000050 ca 1c 04 bd 8d 12 37 3d 2a ec 5f bd 30 80 c7 bc
       -0.032254018 0.044695426 -0.054668583 -0.024353117
000060 94 de 7e 3b 96 ab 0b 3d b5 c9 48 bc a4 0a 2a 3d
       0.003888999 0.034099184 -0.012255122 0.041514054
000070 b8 fd 14 3d fd bb ed 3c 39 9a ce 3a 4f e0 0d 3d
       0.036374778 0.029020304 0.0015762515 0.034637745
000080 4c f2 fc 3a df 11 c4 3d 9c 22 92 3c 99 ff 33 bb
       0.0019298284 0.09573721 0.017838769 -0.002746558
000090 1a a3 9e bc 61 1e 20 bd a1 ca 50 3d 72 90 4d bd
       -0.019364882 -0.03909147 0.050974492 -0.050186582
0000a0 c9 45 24 3d 1c 3d 5d 3d ef 94 e5 3c 88 ac a9 3d
       0.040105615 0.054013357 0.028025119 0.08284861
0000b0 6c 43 22 bd 7b fb 12 bc 76 8a dd bc 09 51 96 3c
       -0.03961508 -0.00897109 -0.027043562 0.018349187
0000c0 15 0f d9 bc 41 c8 97 bd f9 a7 c2 bd e1 26 e3 bd
       -0.02649645 -0.07411242 -0.095046945 -0.110914
0000d0 74 b6 f7 bd 5e 68 98 bd 8d 41 5b 3d cc e9 b8 3d
       -0.12095347 -0.074417815 0.05352931 0.09028968
0000e0 7f bf 5a 3c bc 02 ab 3d 8b 1b 00 3e 17 57 23 3b
       0.01335132 0.08350131 0.12510507 0.0024923736
0000f0 36 ef b2 3c 3e c7 ad 3c 6d 6f 41 bd fb f8 31 3d
       0.02184258 0.02121317 -0.047225405 0.043450337
000100 58 50 a9 3d fa 50 70 3d e1 ac 30 3c 06 4d 13 bd
       0.082672775 0.058670975 0.010783405 -0.035962127
000110 0f b8 58 bd fd 06 23 3c c4 8b b9 bc 48 f7 1b bd
       -0.052909907 0.009950397 -0.022649653 -0.038077623
000120 ad 1f 88 3d 27 cd 77 3c cd 7d eb bb 30 ac ad bd
       0.06646667 0.015124596 -0.0071866275 -0.08480108
000130 89 62 c6 bc 6d 87 97 3c cb b7 f4 3c 03 98 53 bc
       -0.024216907 0.018497193 0.029872796 -0.01291466
000140 d8 a2 c8 3c 29 30 05 bd 6e 1a e1 3c 19 79 0e 3d
       0.024491712 -0.032516632 0.027478423 0.034783456
000150 31 65 61 bd 42 b6 9d bc 8f 82 3b bc f0 d5 3a bd
       -0.055028144 -0.019251946 -0.011444702 -0.045614183
000160 d7 73 f1 bd 88 a7 88 bd b6 e5 27 3d 37 50 fd 3b
       -0.11789673 -0.06672579 0.040990554 0.0077305096
000170 69 89 1d 3d fe a7 3c 3b f9 08 81 3d cc 15 b6 3c
       0.038461123 0.0028786655 0.063005395 0.02222719
000180 b8 fc 6d bd fa 31 62 3d da d1 9d 3d be 78 03 bb
       -0.05810234 0.055223443 0.07706042 -0.0020060982
000190 3e be 3a 3d 21 1c e5 3d 3c b9 8a 3d 36 56 69 3d
       0.045591585 0.11187006 0.06773612 0.056966983
0001a0 02 79 8f 3c 91 0e ba 3d 25 39 c1 3c 20 04 51 3c
       0.017513756 0.090848096 0.023586819 0.012757331
0001b0 d2 94 8f 3d 56 2e 24 3c 33 75 0e bd 61 47 54 bd
       0.07010807 0.010020813 -0.03477974 -0.051825885
0001c0 5e 2b b2 3b f4 33 4e bc fb d1 17 3c 28 b2 2f 3d
       0.0054372987 -0.012585629 0.009266372 0.042894512
0001d0 ac ea a3 3d 05 b8 11 3d 10 ee b2 bc a8 ed 41 bc
       0.080037445 0.035575885 -0.021842033 -0.011836447
0001e0 3a 8e 50 bd 7d 26 8f bd 64 f1 61 bd a0 4e dd bc
       -0.050916888 -0.06989763 -0.05516185 -0.02701503
0001f0 0f 9a 0d bd 05 da 45 bd 38 97 48 3c ac 2c 18 3d
       -0.03457075 -0.048303623 0.012243085 0.037151977
000200 75 bb af bd 69 05 f9 3c 45 4f 91 bc 1e aa 6d bd
       -0.085806765 0.030398088 -0.017737994 -0.058023565
000210 ee d8 99 3d 47 a9 f3 3b 84 09 b8 bc 50 51 b8 bd
       0.07512079 0.007435951 -0.022465475 -0.08999884
000220 ec 12 10 bd 7c 57 20 bd bb b8 94 bd 77 c9 8b 3b
       -0.035174295 -0.03914593 -0.07261797 0.00426596
000230 81 e1 69 3d 2c b8 33 3c 15 65 e2 3d 2c 89 c2 3d
       0.057099823 0.010969203 0.11054436 0.0949882
000240 bb ee a2 3d 07 96 d1 3c fa 7e 84 bc 8d 31 c5 3d
       0.079556905 0.025584234 -0.016173828 0.09628592
000250 22 ee 96 bc fa 67 79 bd f1 2f df 3b 3f 0b fe bc
       -0.018424097 -0.060890175 0.006811135 -0.031011222
000260 88 93 a4 bc f3 07 be bc 63 24 85 3b 3a 09 80 bd
       -0.02008988 -0.02319715 0.0040631755 -0.0625176
000270 8d 06 b8 3d a6 b3 2a 3d 7c 1e cb 3a 85 56 94 3c
       0.089856245 0.041675232 0.0015496756 0.018107662
000280 31 ff 5d bc c2 e4 dd 3b f9 46 0f 3d c3 c8 32 3b
       -0.013549612 0.006771655 0.034979794 0.0027280308
000290 88 8e 1d 3d 45 67 94 3c cc 5d b4 3c 31 e0 23 bd
       0.038466007 0.018115649 0.022017382 -0.040008727
0002a0 08 5f e9 3d 0a 4c ef 3d b4 0b 0d 3c 33 33 67 bd
       0.11395079 0.11684425 0.008608747 -0.05644531
0002b0 47 37 d5 bc c3 7a 35 3d 56 ac 18 bd e5 b9 7e bd
       -0.026027335 0.044306528 -0.037273727 -0.062189
0002c0 ae dd 8b bd 51 89 95 bb 3e d4 55 3c 7f 49 ad 3c
       -0.068293914 -0.0045634885 0.013051091 0.02115321
0002d0 26 0f ba 3d 7b a8 d0 3a 17 b6 6d 3d aa 24 a1 bd
       0.090849206 0.0015919352 0.058034983 -0.07868321
0002e0 72 5c 21 bd 5a 3c a6 bb 02 76 41 bd 44 c4 a2 bc
       -0.039394803 -0.0050731124 -0.04723168 -0.019868977
0002f0 6f 62 44 3d fc 90 7d bb e1 a8 cf 3c 42 71 31 3d
       0.047945436 -0.0038691154 0.025349082 0.0433209
000300 20 23 5a bd 6e 5a 52 bd 8f d0 0f 3d 79 3a c3 bc
       -0.053256154 -0.05135577 0.035111006 -0.023831593
000310 f2 92 57 bd 4c 82 44 3d 10 46 d5 3c 8a ac 14 3d
       -0.052630372 0.047975823 0.026034385 0.03629736
000320 74 b8 ac 3d 14 74 2b 3c 1d 1c 8f 3a 99 14 9f bc
       0.08433619 0.010464687 0.0010918413 -0.019419001
000330 3a 34 af 3a af 16 8c bd 5a b7 16 bd 96 c7 a9 3d
       0.0013367005 -0.06840264 -0.03679595 0.08290021
000340 66 1f 1b 3d 78 9f 96 bd 18 72 59 3d 14 5f a3 3d
       0.03787174 -0.07354635 0.053087324 0.07977119
000350 86 32 32 bd b3 00 1e bd 08 2b 44 bc a3 c2 67 3b
       -0.043505214 -0.038574886 -0.01197315 0.0035363815
000360 fb 93 54 3d 9e 13 05 3d 8d f3 d4 3c 8c 1b 34 3d
       0.051898938 0.03248941 0.02599504 0.043971583
000370 d8 7b e7 3d ed 18 a7 3c ee 32 03 3c bf 06 d5 3d
       0.11302918 0.020397628 0.008007748 0.10401677
000380 c7 e1 15 3d a5 1f 6b bd 9b 28 30 bc 99 d4 30 3c
       0.03659227 -0.057403225 -0.010751869 0.010792875
000390 f6 5f c5 bc 6c 48 2b bc 37 8f e2 bb f5 9c 68 bb
       -0.02409361 -0.010454278 -0.006914045 -0.0035493944
0003a0 da 73 36 3c 6b f3 80 3c 5a 0e a8 bb 58 4e 02 3c
       0.01113602 0.01574107 -0.005128664 0.007953249
0003b0 18 83 b5 3c 10 9b 27 bd 12 9a fa bc ca c9 38 3c
       0.022157237 -0.040919363 -0.030591045 0.011278579
0003c0 68 7f b5 bc bc 7e c8 3c 9c df c7 3c fc 00 7f 3d
       -0.022155479 0.024474494 0.024398617 0.0622568
0003d0 3b c6 b4 bc 7d 60 95 bb 04 37 9b 3b 37 3d b6 bb
       -0.02206718 -0.0045586214 0.004736783 -0.0055614966
0003e0 ee 92 43 bd 6e ff ed 39 51 0d 1a bc 80 2f 20 bd
       -0.047747545 0.00045394473 -0.009402589 -0.0391078
0003f0 67 8e 84 3c 77 a7 a4 3d 1d 65 5f bc b9 71 41 bc
       0.016181184 0.08039754 -0.013634947 -0.011806899

block4.0.depthwise.weight f4 [256, 1, 3, 3]
000000 8b 38 05 bd bd a8 44 3c 98 fc a3 b9 fd c6 a6 bc
       -0.032524627 0.012003121 -0.0003127798 -0.020358557
000010 b7 69 7c 39 29 8e 85 3d c5 85 02 3c 8c 42 4a bb
       0.00024071975 0.065212555 0.007966463 -0.003086242
000020 a9 c6 00 3d c6 83 8b bc 83 0f f4 bc c1 e6 6e bd
       0.031439457 -0.017030608 -0.029792553 -0.058325533
000030 21 53 8b bd 72 ba a1 bd 25 f4 05 bd 49 03 ed bc
       -0.06802965 -0.0789689 -0.032703537 -0.02893223
000040 ba fd d3 bc 8d 8d 4c bd 9d 5c 31 3c 97 04 5c 3c
       -0.025877822 -0.04993968 0.010825303 0.013428829
000050 85 2c cd 3b a6 54 c5 bc a2 f7 e2 3c b1 1e b4 bc
       0.0062614107 -0.024088215 0.027705971 -0.021987291
000060 ac 37 2b bc 7d ed 03 bd a6 a7 8c bb 3c b7 b5 3d
       -0.010450285 -0.03220891 -0.004292446 0.0887284
000070 04 62 92 3d fe 7e 59 bc d9 33 a8 3d 16 8e 7f 3d
       0.07147601 -0.013274906 0.08213014 0.062391363
000080 84 67 9c 3d e6 3d 29 3d 70 cc 68 3d 25 9e 58 3d
       0.076369315 0.041318797 0.05683559 0.052885193
000090 10 cd 04 3b fd d3 17 bc d4 46 83 bc 23 3f d0 3a
       0.0020263828 -0.009266851 -0.016024984 0.0015887957
0000a0 44 dc 90 bb bb 06 d8 bc fb 4f 04 bd 35 04 9d 3c
       -0.004420789 -0.026370397 -0.032302838 0.019167045
0000b0 cb 20 8a bc 17 c7 19 3c 31 08 3e bd 2a 24 ba bb
       -0.01686134 0.009385846 -0.04639453 -0.0056805806
0000c0 5a 93 1c bd bb 0b 21 bd 81 c7 02 bd b0 68 bd 3b
       -0.038226463 -0.039317828 -0.031928543 0.005780302
0000d0 eb ff f0 3b ef 59 97 bc 6a b2 53 3d f2 fa 4e bb
       0.0073547265 -0.0184755 0.05168382 -0.003158268
0000e0 5e 1f ac bc 52 94 f1 ba 43 41 82 bc 30 cc 85 bc
       -0.02101105 -0.0018431044 -0.01590026 -0.016332716
0000f0 ef 87 3e bc 16 c9 ed bb 53 db 2a bd 2f 1c d9 bc
       -0.011629089 -0.0072566373 -0.04171307 -0.026502697
000100 29 a2 76 3b 3a 5b 35 3d 07 c0 94 bd 04 79 f8 3c
       0.0037633276 0.044276454 -0.07263189 0.030331142
000110 ef 7d ac bc bc f4 80 3c 81 85 62 bd 02 ef e0 bd
       -0.021056144 0.015741698 -0.0553031 -0.10983087
000120 53 c0 55 bd 92 2d 26 bc b6 dd f4 3a 98 c9 55 bd
       -0.052185368 -0.010142701 0.0018681798 -0.052194208
000130 6d 04 77 bd c9 98 bd bd 9b b5 9b bb 15 d4 89 bd
       -0.060306955 -0.09257657 -0.0047518737 -0.067299046
000140 5e dd ac 3b f1 9f 22 3d de e3 e2 3b 54 04 f6 3c
       0.0052754125 0.039703313 0.0069241365 0.03003136
000150 1a bd 15 bd 6f 2e 10 3c 77 f6 0e 3c 34 cb ff 3b
       -0.036557294 0.008800133 0.008725754 0.007806206
000160 9f 23 01 bd 6a 11 12 bd ad 51 0e bd a1 3c 0b 3d
       -0.03152811 -0.03566114 -0.03474586 0.033993367
000170 ff 44 61 bd 9f e7 20 3c 5d fb 07 3c 6b 9c 5f bd
       -0.05499744 0.009820848 0.008299676 -0.05459253
000180 88 a5 4a bd b0 b4 41 bd e8 88 bc 3c 63 ed 80 bc
       -0.04947427 -0.047291458 0.0230145 -0.015738195
000190 71 eb 5c bc 61 ef c2 3a 0b c8 89 bc 33 ca 95 bd
       -0.013483868 0.0014872366 -0.01681902 -0.07313957
0001a0 20 c5 f2 bc 75 f5 41 3d a6 5b 01 3d 82 0b 07 bd
       -0.029635012 0.047353227 0.031581543 -0.03296996
0001b0 ed 34 1b bd 2a f3 f6 bc 10 f8 05 bd f7 5b 67 3a
       -0.03789227 -0.030145247 -0.032707274 0.00088256545
0001c0 49 f5 be 3c a3 e3 d2 3b 43 51 86 3d 46 82 a1 bc
       0.02331032 0.006435828 0.06558468 -0.01971544
0001d0 25 76 a4 bb c5 d0 68 3b 17 78 d4 bc b4 24 1e bd
       -0.0050189667 0.0035524827 -0.02593617 -0.03860922
0001e0 40 77 3f bc 77 a5 8e bd e4 15 92 bd 76 9d cd bc
       -0.011686146 -0.06965154 -0.071330816 -0.025099497
0001f0 a2 34 14 bd 96 e3 8f 3c 2d 21 1b bd c3 d3 1b 3d
       -0.036183007 0.017564576 -0.037873436 0.03804375
000200 10 c4 67 3c 29 4c 9f bc 2d a8 45 bd d4 5f 2d bc
       0.014145866 -0.019445496 -0.048256088 -0.010581929
000210 e4 61 0e bb 89 e2 3b bc bc fa 02 bd 12 7b 84 3c
       -0.0021725828 -0.011467584 -0.0319774 0.016171966
000220 31 29 c9 3c 68 78 66 bc c0 3d e4 3c 0e 30 5a bb
       0.024555774 -0.014066793 0.027861476 -0.0033292803
000230 0b 28 d9 3b c2 35 8c 3c 23 7f c8 3c fa b4 4b 3b
       0.006627088 0.017115477 0.024474686 0.0031083212
000240 91 87 c4 3c fd 33 2e 3c 97 19 8d bc a5 75 e7 bc
       0.023990424 0.010632512 -0.017224116 -0.02825434
000250 9f 70 1c bc 98 6e aa 3c e1 f6 04 3c 66 3e 85 3c
       -0.009548335 0.020804688 0.008115501 0.016265105
000260 43 58 22 3d 43 1f 5b bc 22 d6 e4 bc 3f d7 d3 3d
       0.039634954 -0.013374153 -0.027934138 0.10343789
000270 68 f1 f1 3c ab 52 a0 bc d5 90 b8 bc 3c 67 58 3d
       0.029534057 -0.01957067 -0.022529999 0.052832827
000280 fd af 41 3d cd 14 9f bc 1c c4 58 bc 87 48 a9 3d
       0.047286976 -0.019419098 -0.01323035 0.082657866
000290 56 9b 3a bd ac 6c 15 3d 0d 86 26 bb 60 a0 57 bc
       -0.045558296 0.03648059 -0.002540949 -0.013160795
0002a0 31 2b bf 3c d2 7f 25 3c c5 ab b4 3c 07 74 ea bb
       0.023336025 0.0101012755 0.022054562 -0.007154945
0002b0 29 ed 88 3c 7d c1 fe bc 4a de 6c bc 69 5e 24 bd
       0.01671465 -0.031098122 -0.014457295 -0.0401291
0002c0 0c e5 fc bb 41 6c b6 bc 80 73 eb 3c b9 f6 dc 3c
       -0.007717734 -0.022268416 0.028741598 0.026973115
0002d0 6e c7 94 3c de be 64 bb 92 ed 93 bd 5f 64 ea bc
       0.018161502 -0.0034903805 -0.07223047 -0.028612314
0002e0 75 a3 8d 3d 90 72 d8 3b 10 9d 22 bd fb 82 44 bc
       0.069159426 0.006605454 -0.039700568 -0.011994119
0002f0 32 16 2d 3d 0e aa 71 bd 08 8f 46 bd 05 30 a7 bb
       0.042257495 -0.059000067 -0.04847625 -0.00510216
000300 a2 ac 67 3b c5 87 7b 3b 5e 15 e7 bc 42 25 ab bc
       0.00353507 0.0038380485 -0.02820843 -0.02089179
000310 ee 1e a0 3b e0 04 ca 3c 9c dd 44 3d b1 2d 4f 3d
       0.0048864996 0.024660528 0.048062906 0.050580684
000320 0d 3a 24 3d 30 3f 5d 3d 0e ff 49 3d 2a f9 8e 3d
       0.040094424 0.05401534 0.049315505 0.06981118
000330 b6 93 8b 3c 18 32 af 3b 96 9e b2 3c 27 f6 8e 3d
       0.017038208 0.005346548 0.021804135 0.069805436
000340 fd bc 88 3c 54 55 b5 bb 5f 99 12 3d e3 72 ad 3d
       0.01669168 -0.0055338535 0.035790797 0.084691785
000350 c5 3c 61 3d 83 22 43 bc b9 58 11 3c 75 5c 1d 3b
       0.054989595 -0.011910084 0.008871251 0.0024011408
000360 1e d5 ca bc f5 bb ad bc 93 b0 f2 3c dc e3 bc 39
       -0.024759825 -0.021207789 0.029625213 0.00036027923
000370 2e cf a8 bc 21 16 2b bd 14 fd e9 bc 48 4c d6 bc
       -0.020606603 -0.04176915 -0.02856306 -0.02615942
000380 6e ec 8c 3c 09 5b 73 3b 17 90 70 3c 3f 20 37 3d
       0.017202582 0.0037133119 0.014682791 0.044708487
000390 69 f7 45 3d c6 e7 8d 3c d9 6d f5 3c a6 26 2b bd
       0.04833165 0.017322432 0.029959606 -0.041784905
0003a0 b4 6c 53 bc aa 58 10 3b d1 62 9e 3b 50 b6 0f 3c
       -0.012904335 0.0022025504 0.004833557 0.008771494
0003b0 60 1f bf bc c3 f7 48 bd 9c b4 b6 bb 35 de c9 3b
       -0.02333039 -0.04906441 -0.0055757295 0.0061605223
0003c0 73 fc d1 3b 8e 77 cd bc 7b cd 3f bd b4 5f b5 bc
       0.006408268 -0.025081422 -0.04682682 -0.022140361
0003d0 3d a7 b0 bc 7b ae 11 3c a6 dc 34 bc 59 7b 1a bc
       -0.02156412 0.008891697 -0.011038935 -0.009428822
0003e0 68 e9 85 bc 33 a8 8f 3c 72 14 52 3b 49 63 46 bc
       -0.016346648 0.017536258 0.0032055643 -0.012108632
0003f0 3d 74 d4 bc 5f d6 3e bb 5c 08 09 3d 47 be 56 3b
       -0.025934333 -0.0029119474 0.033455238 0.0032767223

classifier.1.weight f4 [128, 512]
000000 62 4e 10 bb 0a 23 57 bc 40 ad fd bb 9e 65 c2 3b
       -0.0022019376 -0.013130913 -0.0077416003 0.005932524
000010 bf 79 35 3c 72 8d 8f bc af 6c 94 bc f1 20 50 bc
       0.01107639 -0.017523501 -0.01811823 -0.012703166
000020 31 dd 11 bc 78 ed de bb cc fd 0a 3b 1f 35 d5 ba
       -0.008902834 -0.006803211 0.0021208404 -0.0016266442
000030 cf bd ee ba 9a e8 1b 3c 6b 48 24 bc ee 0f 8f bc
       -0.0018214526 0.009515906 -0.010027031 -0.01746365
000040 e7 af 07 3c a7 5c 4c bc f9 86 37 3a 3a 45 e3 3b
       0.0082816845 -0.012473262 0.00070010085 0.0069357427
000050 96 9e 7e bc e2 bd f0 3b 62 16 9d bc ee 76 f0 3b
       -0.0155407395 0.0073468545 -0.019175712 0.0073383963
000060 62 d2 35 bb a3 22 64 bc c4 40 50 39 30 0f 97 bc
       -0.0027743806 -0.013924274 0.00019860553 -0.01843986
000070 c0 34 eb bb 6d fd 0b bc 86 d1 50 bb d9 08 a6 bc
       -0.007177919 -0.008544308 -0.0031863167 -0.02026789
000080 64 fc 8b bb cf a2 38 bc c7 51 18 bc 45 d3 5f 3b
       -0.0042720307 -0.011269285 -0.009296841 0.0034153026
000090 f7 cd 83 3c 67 4c b7 b9 2b b9 49 3b d2 ed 1b bb
       0.016089423 -0.00034961404 0.0030780535 -0.0023792875
0000a0 5a 21 bd b8 69 f4 fd ba 65 0d 04 bc b9 a9 ef bb
       -9.0184345e-05 -0.0019375208 -0.008059834 -0.0073139337
0000b0 fa be fb ba fc 85 e7 bb e5 63 05 3c b2 cb 18 3c
       -0.0019206696 -0.0070655327 0.0081414925 0.0093259085
0000c0 de 9b 8f bc 7b 4c 86 ba 73 70 a7 3b 2f 6c 61 3c
       -0.017530378 -0.0010246182 0.0051098405 0.013758703
0000d0 3a 88 a0 bb a3 d6 bd ba f2 08 dc bb 35 26 c1 bb
       -0.004899052 -0.0014483522 -0.0067149336 -0.005894447
0000e0 11 5c 95 3b 75 f7 d1 bb 16 c1 2c bb 57 45 50 bc
       0.0045580943 -0.006407673 -0.0026360205 -0.012711844
0000f0 4e 4c 93 bb a0 41 4a bc 0d e7 a8 bc 11 e8 0f bc
       -0.00449518 -0.012344748 -0.020617986 -0.008783356
000100 e1 c9 e4 bc 4a 14 c2 bc 91 cd 1f bc a1 3b 56 bb
       -0.027928295 -0.023691315 -0.009753601 -0.003268935
000110 5c c5 fc 39 5b 65 74 bc 24 18 6c 39 06 81 b6 bb
       0.0004821223 -0.014916743 0.00022515707 -0.00556958
000120 41 d3 2f 3b 7e 8e 30 bc 95 b7 87 3b ac 02 63 ba
       0.0026828798 -0.01077616 0.0041417577 -0.0008659761
000130 ee b0 87 bc bd 89 8b bc 8c a3 b6 3a 07 04 02 bc
       -0.016563859 -0.017033452 0.0013934239 -0.0079355305
000140 dc fa a2 3a 67 1a 85 bc a0 88 c4 ba 11 55 93 3a
       0.0012434381 -0.016247941 -0.0014994331 0.0011240562
000150 58 7e 2b bb a6 96 62 3c df 8c af 3b 98 c6 3a bc
       -0.0026167836 0.013829863 0.0053573693 -0.0113998875
000160 7b 9d d9 bc 04 c6 f4 39 d7 4d 35 bc db d1 14 bc
       -0.02656435 0.0004668684 -0.011065922 -0.009083237
000170 2e 41 22 bc 5e 20 8f bc 55 66 c2 bb 3b 72 9d 3b
       -0.009903235 -0.017471489 -0.005932609 0.004804877
000180 92 25 12 bc 68 7b e6 39 80 6b 84 3c 9e eb 07 ba
       -0.00892009 0.00043960963 0.016164541 -0.0005184951
000190 1d d1 c1 ba d6 13 29 bb 43 44 bc bc ad d1 a7 bc
       -0.0014787052 -0.0025799177 -0.022981768 -0.020485723
0001a0 91 7a e2 bb 0c 29 5a bb 01 9a cd bb 50 36 b2 bb
       -0.0069115837 -0.0033288626 -0.006274462 -0.0054386035
0001b0 35 ff 68 bc ae 0a 6d 3a f2 d5 2c bc 2f 67 c5 3a
       -0.014221002 0.0009042424 -0.010549055 0.0015060658
0001c0 2b f5 e8 3a 5d 68 9c bb e5 33 dc bb 9c 30 dc bb
       0.0017773261 -0.0047731833 -0.0067200535 -0.006719662
0001d0 c2 84 8d bc eb 27 3e 3b 83 8b b8 bb fc f7 cc bb
       -0.017275218 0.0029015492 -0.0056318655 -0.006255148
0001e0 1c 54 7e 3b 28 c1 94 bc 99 2e 6c bb 4a 18 8f b9
       0.0038807457 -0.01815851 -0.0036038517 -0.00027293182
0001f0 e7 6b c8 3c a8 35 20 bc 67 4b c1 37 8c 16 26 3b
       0.024465514 -0.009778418 2.3042505e-05 0.0025343029
000200 d0 7e c2 ba 49 92 83 bc 8a 10 8c bc 4f 9a 6d bc
       -0.0014838818 -0.016060965 -0.01709773 -0.014502122
000210 6f 4f 9e bc 90 08 be 3b ae d2 6f bc 4d a2 f1 bb
       -0.019324986 0.0057993606 -0.014637632 -0.007374084
000220 a3 4a a6 bc 95 47 43 bc 30 13 40 bc c8 a3 8d bb
       -0.020299261 -0.011918922 -0.011723325 -0.0043225028
000230 73 31 70 3c 3e bf 97 bc 55 82 75 bc d1 8d 4a bc
       0.014660227 -0.018523809 -0.014984687 -0.012362913
000240 a0 da 87 bc 29 77 32 bc d9 56 91 3b e6 5c df 39
       -0.01658374 -0.010892668 0.004435402 0.0004260309
000250 6f 46 a6 bb e1 2e 09 3a e8 a0 0e 3b 6c 48 0d 3b
       -0.0050743143 0.0005233121 0.0021763388 0.002155806
000260 12 62 a8 bc 7e fc 25 bc b3 50 a6 bb 4d 6f 9c bb
       -0.020554576 -0.010131 -0.005075538 -0.0047740103
000270 22 b3 ac bc 88 9a d1 bb 13 5b cb 3b 24 8f aa bb
       -0.02108151 -0.0063965954 0.0062059253 -0.005205052
000280 87 e7 36 3c 54 81 35 bc 04 52 de 3b 9b d4 b8 bb
       0.011163599 -0.0110781975 0.0067846794 -0.005640579
000290 ec 9b 45 bb 85 17 6f bc cd c8 28 3c b5 51 2a bc
       -0.003015275 -0.01459301 0.010301781 -0.010395457
0002a0 bc 18 82 bc 5e 11 c8 bc ba c3 6d bb b6 7b 9f bc
       -0.015880935 -0.024422344 -0.0036279992 -0.01946817
0002b0 1f 03 d9 bb e4 c2 20 bb 23 63 8d bc 96 e8 90 ba
       -0.0066226865 -0.0024530226 -0.017259186 -0.0011055644
0002c0 3f 02 af bc 49 42 33 bc 6d 2f d9 3a df c9 d4 3b
       -0.021363376 -0.010941097 0.001656992 0.0064937915
0002d0 dc ed 35 bb fc 17 a5 bc 43 e9 2e ba a3 d9 9d bc
       -0.0027760183 -0.020153038 -0.0006672332 -0.019268816
0002e0 6d b7 bd 3b e0 4e 6e bc a3 58 5c bb 66 1b 48 bc
       0.0057896883 -0.014545172 -0.0033622168 -0.012213564
0002f0 92 17 63 bc 5a d9 3c b9 20 c4 8f bc 37 69 20 bc
       -0.0138606 -0.00018010047 -0.017549574 -0.00979071
000300 2d 0b 88 bc 6c 01 cf bb f3 89 13 3c c1 11 74 3c
       -0.016606892 -0.006317308 0.009005058 0.014896811
000310 88 af 6d 3c fd db 15 bc 35 bf a2 bb 78 9a b6 3b
       0.014507182 -0.009146688 -0.0049666413 0.0055726133
000320 99 52 80 bb 89 0a 7a 3b ad 5d 00 bc 47 45 31 3b
       -0.0039160964 0.0038153252 -0.007834834 0.002704935
000330 47 d2 8a bc 64 74 6e 3b 20 13 aa bb f0 c5 5d bc
       -0.016945971 0.0036385292 -0.005190268 -0.0135359615
000340 d9 f1 8d bc 2e db 4c bc f5 f9 b4 3a 16 7d a3 bc
       -0.017327236 -0.012503428 0.0013807403 -0.019957107
000350 14 0f 83 3c e4 94 05 3c 2d fe 30 bc 2f 68 4a 3b
       0.0159984 0.008153174 -0.010802788 0.0030884852
000360 d7 44 a1 bc 00 2f 76 bc 7c 5c 93 3a d3 2e f0 bb
       -0.019686146 -0.015025854 0.0011242772 -0.0073298006
000370 e3 1c c2 3a 28 92 1e bc aa 13 c2 3a 7c dd a1 bb
       0.0014809634 -0.009678401 0.0014806886 -0.004939733
000380 61 93 c0 bc ce 16 ae bc ad a6 f4 bb 30 c9 4b bc
       -0.023507776 -0.021251108 -0.0074661584 -0.012438104
000390 fb c1 21 bb 0d bd 81 bc 08 db ba bc d6 a2 3a bc
       -0.0024682272 -0.015837217 -0.02280952 -0.011391362
0003a0 a8 81 b6 ba 4b 4e c9 bc a6 c0 55 bb ae 03 d4 bb
       -0.0013924139 -0.024573466 -0.0032616048 -0.006470165
0003b0 5c 98 aa 3b d1 49 47 3c 55 ee b0 3a 6b a0 df 3b
       0.005206151 0.012163595 0.0013498763 0.0068245432
0003c0 c3 67 9a bc 10 f3 ff 3a 91 da 9d ba 27 89 2a bc
       -0.018848306 0.0019527394 -0.0012043287 -0.010408676
0003d0 40 96 10 bc 54 f0 2b bc 26 dd f8 bc 72 c6 bf bc
       -0.008824885 -0.01049431 -0.03037889 -0.023410056
0003e0 52 87 5d bb 53 1a 0d 3c 6d 4c 6c bb d5 33 1a bc
       -0.003380258 0.008612233 -0.0036056296 -0.009411772
0003f0 ca e8 e8 3c 57 8b 10 bb b1 b1 9e 3a 0b 3e 24 3c
       0.028431315 -0.002205571 0.00121074 0.010024558

classifier.1.bias f4 [128]
000000 82 90 a9 bb 04 36 5d 3c 0c 46 dc bb 43 24 ab bb
       -0.0051746974 0.013501648 -0.0067222174 -0.0052228286
000010 be 8a 0a bb 58 30 fa 3c 8d a4 c4 bb 8f a5 c4 bb
       -0.0021139826 0.03054063 -0.0060010613 -0.0060011814
000020 d9 25 1d 3d 60 5b 1f 3d 6c af 94 3c 3f a4 c4 bb
       0.038366172 0.0389055 0.018150054 -0.006001025
000030 bf ec 41 3c 48 a5 c4 bb 98 72 42 3c 81 4a 0f 3d
       0.01183623 -0.0060011484 0.011868142 0.03498316
000040 1c 5d e1 3c 21 62 a6 3b a5 1e 8c 3b 5c a5 c4 bb
       0.027510218 0.005077616 0.004276114 -0.0060011577
000050 01 bf 08 3c 02 e6 c1 3c 51 43 e0 3c f1 cc 08 bc
       0.00834632 0.023669247 0.027375849 -0.008349643
000060 aa ac cf bb ae c4 88 3c 7c a5 c4 bb 1e e8 a8 bb
       -0.006337722 0.016695347 -0.0060011726 -0.0051546237
000070 d6 59 d5 bb 3d 1a c7 bb 71 92 43 3d b8 22 db bb
       -0.0065109534 -0.006076126 0.04774708 -0.0066874884
000080 ad a5 c4 bb 0a a4 c4 bb de a5 c4 bb 21 d2 07 3c
       -0.0060011954 -0.0060010003 -0.006001218 0.008289845
000090 4e 5d e2 3c 43 ae 99 3b a3 31 5a 3a 87 8c cb bb
       0.027632382 0.004689963 0.00083234365 -0.0062118205
0000a0 54 5a 37 3c 80 94 07 3c f4 25 3f ba 20 f5 cf bb
       0.0111909695 0.008275151 -0.0007291727 -0.00634636
0000b0 54 a3 c4 bb 2d 2f f5 bb d3 1a 9c 3c de e5 c8 ba
       -0.0060009155 -0.0074824304 0.01905576 -0.0015327295
0000c0 aa 38 62 3b eb fa 41 ba ec 76 d4 ba 99 6d 71 3c
       0.0034518638 -0.00073997554 -0.0016209758 0.014735603
0000d0 0c db 97 bb 2a 27 cb 3b 68 9e c4 bb 27 a8 c7 3c
       -0.0046342667 0.006199737 -0.006000329 0.024372173
0000e0 b3 5f 5b bc 1d 1c ee 3c 9c a4 c4 bb 46 7a 89 3c
       -0.013389516 0.02906614 -0.0060010683 0.016781937
0000f0 84 e8 cb bb fd 77 b8 3c ad ac f9 3b 27 a3 c4 bb
       -0.0062227864 0.022518152 0.0076194615 -0.0060008946
000100 26 bf ce 3b 1f 0e 08 bc a9 60 02 38 28 fa 4b 3c
       0.0063094078 -0.008304148 3.1084437e-05 0.012449779
000110 2a de b5 bb fe 87 ec 3c 2d da 18 3c 79 a5 c4 bb
       -0.0055501657 0.02887344 0.009329361 -0.006001171
000120 94 a5 c4 bb dd a4 c4 bb 13 20 62 3b 1c a3 c4 bb
       -0.0060011838 -0.0060010985 0.003450398 -0.0060008895
000130 02 96 c4 bb d0 aa 8b 3b c7 bd a9 bb c2 fc 1e 3c
       -0.0059993276 0.004262306 -0.005180094 0.009703817
000140 93 4d 38 bb e0 a0 c4 bb c3 cd cf 3c 43 d3 23 3d
       -0.002812241 -0.006000623 0.02536667 0.039996397
000150 62 ee ae bb bb f3 f7 bb d8 21 2a 3c 25 92 dd bb
       -0.005338476 -0.0075668967 0.010384046 -0.0067618066
000160 72 bb ba 3c 77 a2 c4 bb 42 65 20 3c 46 f6 ca bb
       0.022794459 -0.0060008126 0.009789767 -0.006193909
000170 2a a5 c4 bb 61 68 60 3c 01 79 0b bc 89 a4 03 3d
       -0.0060011344 0.013696761 -0.008512736 0.032139335
000180 64 ab 87 bb ce 2c 85 3b 37 9d c4 bb 4f 9a c4 bb
       -0.0041403044 0.004064179 -0.006000187 -0.0059998403
000190 81 d0 04 bc 48 13 bb 3c d7 13 e2 bb 20 34 2d 3a
       -0.008106352 0.022836342 -0.0068993377 0.00066071935
0001a0 62 29 e5 bb 7d c8 dc bb 7f 70 12 3d a6 75 21 3c
       -0.0069934586 -0.0067377673 0.035751816 0.00985471
0001b0 01 66 e7 bb cb a5 c4 bb 0c c8 03 3d bb bb b2 bb
       -0.0070617204 -0.0060012094 0.0321732 -0.005454508
0001c0 fe 55 1a 3b b2 1a b6 bb ea f3 2c 3b b9 73 8e 3c
       0.002354979 -0.0055573815 0.0026390501 0.017389165
0001d0 86 47 a3 bb 20 36 ba 3c 4c f5 37 3c 55 85 d3 3c
       -0.0049828915 0.022730887 0.011227917 0.025820414
0001e0 0a d3 e1 bb 1e a4 c4 bb 6c 77 df 3a 11 d0 16 3c
       -0.006891613 -0.0060010096 0.001704914 0.00920488
0001f0 6b 99 8f 3c 6f 9a a0 3c cb 04 69 3c 42 6a aa 3c
       0.01752921 0.01960489 0.014222334 0.02080262

classifier.4.weight f4 [8, 128]
000000 2b 3a d3 ba 17 b7 d4 3c 84 6f ab bd 77 37 26 3c
       -0.0016115358 0.02596621 -0.08370879 0.01014506
000010 9f 09 13 3d b4 58 fa 3c 49 6c e5 ba a5 1d 72 3c
       0.035897847 0.030559875 -0.0017503585 0.014777576
000020 cd 7c e9 bb c4 9f 5d bd 56 49 68 3d 76 a1 ee bb
       -0.007125473 -0.054107442 0.056710564 -0.0072824312
000030 b5 d0 09 3d d6 6a 3a bb ea 5b 2f 3d bb c1 50 3d
       0.033646304 -0.0028445027 0.042812265 0.050966006
000040 a5 6c c6 3c 42 58 32 3d e0 39 a4 3c bf 49 0a 3a
       0.024221728 0.0435412 0.020047128 0.0005275271
000050 cb cb 38 bd 99 78 40 3d 19 1d 38 bd e4 b9 90 bb
       -0.045116227 0.04699001 -0.044949625 -0.004416691
000060 1c de 9f 3b 0c c7 3a bd d1 fc 62 bb cd 2b 93 3c
       0.0048787724 -0.045599982 -0.0034635554 0.017965222
000070 db f9 87 3a 72 cb bf 3b 5b 7a 3f 3c 01 29 b1 bb
       0.0010374145 0.00585311 0.011686887 -0.0054064994
000080 6c 22 4e bb 9a 9a b4 bc 0f 6e a9 bb a4 2d 00 bd
       -0.0031453623 -0.022046376 -0.0051705907 -0.031293526
000090 2d 0d 64 3d 2d 6d 85 3c 4b b4 8f bd 10 94 6a bc
       0.055676628 0.01628741 -0.0701681 -0.014317527
0000a0 63 f3 8f bb 42 30 31 3c 73 36 78 bd e2 b8 b2 bc
       -0.0043930276 0.010814728 -0.0605988 -0.021816675
0000b0 5b b8 d3 bb 75 7f ab 3a a8 50 53 3d 0f bf 51 bd
       -0.006461186 0.001308425 0.05159059 -0.0512076
0000c0 01 92 94 bb ca 0c b8 3c 46 68 82 bc a9 46 31 3d
       -0.0045340066 0.022467036 -0.015918862 0.043280277
0000d0 68 b4 18 bd 46 7f af 3c a5 53 90 bc 30 4e 16 3d
       -0.037281424 0.021422993 -0.01761801 0.03669566
0000e0 51 0f 93 bd be 97 8e bd 68 9d aa bb f5 ea 60 3d
       -0.07180656 -0.06962536 -0.0052067526 0.054911572
0000f0 88 2d bd ba 39 80 5c 3d b6 0e 60 bd 0b 03 9c 3a
       -0.0014433125 0.05383322 -0.05470153 0.0011902762
000100 46 92 d0 bc 38 82 36 3b ce 82 50 3c f1 a0 96 bd
       -0.025460374 0.0027848613 0.012726499 -0.07354916
000110 f3 d9 09 bc 00 cf b0 bc d0 fc 94 bd 71 a3 8f bb
       -0.00841378 -0.02158308 -0.07274783 -0.0043834974
000120 67 b6 3b bc 56 d9 95 bb c5 45 c4 bc a5 1c 50 3b
       -0.011457062 -0.0045730276 -0.02395905 0.0031755355
000130 8f dd ee bb 34 fc 3b bd 97 38 e5 bb bf bf 2e 3d
       -0.0072895954 -0.045894817 -0.0069952714 0.042663332
000140 8d 27 a4 3c c9 6b 87 bc 8e 5b 2a 3d 16 ec 74 bd
       0.02003839 -0.016530888 0.04159122 -0.05979546
000150 37 79 94 3b a3 61 16 ba a4 ea ad 3c 6b f0 94 bb
       0.0045310515 -0.0005736595 0.02123005 -0.0045452616
000160 2a ea 71 3d 5d 55 96 bc 19 63 21 3c 29 ae 14 bc
       0.059061207 -0.018351251 0.009850287 -0.009074726
000170 0c 5f 37 3b f1 60 4b 3d db ba b1 bb dc 94 64 bc
       0.0027980236 0.049652997 -0.0054238862 -0.0139515065
000180 a1 9a 8d bb 89 2e 78 bd ec 7b 38 3c f9 6c f3 ba
       -0.0043214117 -0.060591254 0.011260014 -0.0018571905
000190 eb 28 81 3c 25 80 11 3d 54 25 98 ba 25 f7 5a bd
       0.015766582 0.0355226 -0.0011607804 -0.05345835
0001a0 35 ad 17 bb e2 4b ae bb 5a bd 7d bd 47 71 2b 3d
       -0.002314401 -0.0053191045 -0.061948158 0.041856077
0001b0 3f 38 31 3c b7 6a df bb 7f 6d f3 bc 84 1c bf 3b
       0.010816633 -0.0068181413 -0.029715298 0.0058322567
0001c0 90 ca 73 bd af 0b 4d bc 03 bc 19 bd 1b 12 26 3d
       -0.05951935 -0.012514993 -0.037532818 0.04054461
0001d0 ca b7 5b 3c cb 42 82 bd 84 79 41 3d 0a c7 e6 bc
       0.013410518 -0.06360396 0.047235027 -0.028171081
0001e0 fc c8 90 ba b6 cd 0c 3b cc 3e a0 bd 49 c7 b6 3c
       -0.0011046226 0.0021484918 -0.078244776 0.022311823
0001f0 fa 10 4d 3d 1b d0 33 3d fa 12 65 bd f9 e0 60 bd
       0.05006502 0.043899637 -0.0559263 -0.05490205
000200 c2 56 06 bb 4e e6 65 b9 0b 07 9c 3c 90 07 f6 3a
       -0.002049849 -0.00021924937 0.019046327 0.0018770564
000210 df 7f 0b bc a3 c5 89 bd 26 91 19 3a de 75 5d b9
       -0.008514374 -0.06727149 0.00058581156 -0.00021120111
000220 b0 40 14 bd bf c9 ac bd bd bc db bc 93 dd d2 bb
       -0.036194503 -0.084369175 -0.026823396 -0.006435105
000230 d8 61 5a bd 04 1e 33 bc 5a 98 f8 bc be 64 de bd
       -0.053315967 -0.010932449 -0.030346084 -0.10859059
000240 e6 5a 27 bc 1c 88 de bc a4 74 2f bb 93 06 98 bc
       -0.010214543 -0.027164511 -0.0026772404 -0.018557822
000250 aa 78 1c bc b3 9e d9 bd a4 00 8a 3a ee 01 74 3c
       -0.009550253 -0.106259726 0.0010528755 0.014893038
000260 22 38 36 bc 84 7d ba 3c 77 1d 75 3b 9b 0d a3 bb
       -0.011121782 0.022764929 0.0037401596 -0.004975987
000270 33 8e 43 3a ff ca be bc 7c 51 b5 bc 2b bd c1 39
       0.0007459849 -0.023290155 -0.022133581 0.0003695277
000280 6c f4 91 ba ec 58 d3 bc 12 6d 4b 3c fc 7d a5 3c
       -0.0011135465 -0.025799237 0.012416141 0.020201676
000290 b5 3d fd bc ab a4 e0 3a 86 e7 01 3d 13 f5 9e bc
       -0.030913213 0.0017138919 0.03171494 -0.01940397
0002a0 2c fc ed bc a8 13 81 3b 15 76 b8 3c 49 da b3 bb
       -0.029050909 0.003939111 0.022517243 -0.005488668
0002b0 22 36 b7 bb 65 c3 37 bc 6a 6d dd bc 61 d4 27 3d
       -0.00559117 -0.011216019 -0.027029712 0.040974025
0002c0 89 27 fe bc c1 29 b6 bc 4b 02 dd bc 56 1c 88 bd
       -0.031024711 -0.022236707 -0.026978632 -0.0664603
0002d0 23 b0 ce 3c 9c 92 b2 3b 9b c5 86 3a 25 10 cf bc
       0.025230473 0.005449606 0.001028228 -0.025276253
0002e0 ca f6 25 3d 9d 00 60 3c 03 04 50 bc e6 e5 4e bd
       0.04051856 0.013672021 -0.012696269 -0.050512217
0002f0 fb 00 c5 3b 01 e8 21 bd 5d 75 f5 ba f9 22 01 bc
       0.00601208 -0.039527897 -0.0018726994 -0.007881873
000300 a8 9c f0 3b 3c 33 1b 3c f8 7b 1c bc b8 4d ad 3c
       0.0073428936 0.009472664 -0.009551041 0.021155223
000310 8a 50 81 3b fc 68 8e 3b 68 db d4 3c 14 f9 1f bc
       0.0039463686 0.004346011 0.025983527 -0.009763975
000320 ee 73 e0 bb f1 d5 d4 b9 1a 35 bd 3c 7d b0 57 bc
       -0.0068497574 -0.0004059519 0.02309661 -0.013164637
000330 72 b8 16 bc ee da d9 3c 30 b5 13 3c 7a a3 2a bd
       -0.009199249 0.026593652 0.009015366 -0.04165981
000340 7c b7 d0 3c 90 0e 1b bb 37 db 05 bd 52 9b e2 37
       0.025478117 -0.0023659803 -0.032679763 2.7013626e-05
000350 90 8c d7 bb dd d2 fc 39 05 27 0a bc 47 bd 46 3a
       -0.0065780357 0.0004822229 -0.008432155 0.0007581305
000360 75 49 3a bd 40 d7 26 3c 9d ed 5c 3c 3e aa 8c 3c
       -0.04548021 0.010183156 0.013484386 0.017171022
000370 fd c1 75 3a 4c f1 2b bd 6d d1 94 3b c6 c9 3e bb
       0.0009374915 -0.041978166 0.004541567 -0.0029111966
000380 d7 b0 a1 bc e7 47 c3 3c 87 27 12 bb d6 34 8c bb
       -0.019737644 0.023837997 -0.0022301392 -0.0042787595
000390 e7 2b 57 bc a9 7c be bd 85 b6 93 3b b9 ab c4 3b
       -0.013133026 -0.09301121 0.004507842 0.0060019162
0003a0 3f 65 f2 bb 01 4a 56 bc 16 8f 57 3b 84 1f ed bc
       -0.0073973234 -0.013079167 0.0032891682 -0.028945692
0003b0 7a e1 bf 3c d8 3f 10 bb 5e a6 a6 bb ce 5f d2 b9
       0.023422945 -0.002201071 -0.0050857505 -0.000401257
0003c0 b4 19 15 3d e4 7f bc bc 8c aa f6 3c 1e 7c d4 bc
       0.036401466 -0.023010202 0.03011062 -0.02593809
0003d0 c2 2f 5c 3a e8 2b 67 3c 62 6b aa bc 76 82 b0 bb
       0.00083994505 0.014109589 -0.020803157 -0.005386646
0003e0 54 66 a9 3b 17 c9 98 3b 57 0e a7 3c db 08 35 3b
       0.005169669 0.0046626437 0.02039258 0.0027623686
0003f0 61 a4 90 bc 9b 19 0b bd 50 5a a3 3c 58 51 89 bb
       -0.017656507 -0.033959966 0.019940525 -0.004190605

classifier.4.bias f4 [8]
000000 30 22 28 bc ef e5 dd bb 8b 7d 60 bc 8d ad 77 3c
       -0.010262057 -0.006771795 -0.013701807 0.015117061
000010 19 99 2f 3c fe da 3a 39 4d 09 98 3c c9 fa 9b bc
       0.010717654 0.00017819923 0.018559122 -0.019040482
